Using Theano backend.
('X_train shape:', (60000, 1, 28, 28))
(60000, 'train samples')
(10000, 'test samples')
____________________________________________________________________________________________________
Layer (type)                       Output Shape        Param #     Connected to                     
====================================================================================================
convolution2d_1 (Convolution2D)    (None, 32, 25, 25)  544         convolution2d_input_1[0][0]      
____________________________________________________________________________________________________
activation_1 (Activation)          (None, 32, 25, 25)  0           convolution2d_1[0][0]            
____________________________________________________________________________________________________
convolution2d_2 (Convolution2D)    (None, 32, 22, 22)  16416       activation_1[0][0]               
____________________________________________________________________________________________________
activation_2 (Activation)          (None, 32, 22, 22)  0           convolution2d_2[0][0]            
____________________________________________________________________________________________________
maxpooling2d_1 (MaxPooling2D)      (None, 32, 11, 11)  0           activation_2[0][0]               
____________________________________________________________________________________________________
dropout_1 (Dropout)                (None, 32, 11, 11)  0           maxpooling2d_1[0][0]             
____________________________________________________________________________________________________
convolution2d_3 (Convolution2D)    (None, 32, 8, 8)    16416       dropout_1[0][0]                  
____________________________________________________________________________________________________
activation_3 (Activation)          (None, 32, 8, 8)    0           convolution2d_3[0][0]            
____________________________________________________________________________________________________
convolution2d_4 (Convolution2D)    (None, 32, 5, 5)    16416       activation_3[0][0]               
____________________________________________________________________________________________________
activation_4 (Activation)          (None, 32, 5, 5)    0           convolution2d_4[0][0]            
____________________________________________________________________________________________________
maxpooling2d_2 (MaxPooling2D)      (None, 32, 2, 2)    0           activation_4[0][0]               
____________________________________________________________________________________________________
dropout_2 (Dropout)                (None, 32, 2, 2)    0           maxpooling2d_2[0][0]             
____________________________________________________________________________________________________
flatten_1 (Flatten)                (None, 128)         0           dropout_2[0][0]                  
____________________________________________________________________________________________________
dense_1 (Dense)                    (None, 128)         16512       flatten_1[0][0]                  
____________________________________________________________________________________________________
activation_5 (Activation)          (None, 128)         0           dense_1[0][0]                    
____________________________________________________________________________________________________
dropout_3 (Dropout)                (None, 128)         0           activation_5[0][0]               
____________________________________________________________________________________________________
dense_2 (Dense)                    (None, 10)          1290        dropout_3[0][0]                  
____________________________________________________________________________________________________
activation_6 (Activation)          (None, 10)          0           dense_2[0][0]                    
====================================================================================================
Total params: 67594
____________________________________________________________________________________________________
Train on 48000 samples, validate on 12000 samples
Epoch 1/20
  128/48000 [..............................] - ETA: 138s - loss: 2.9377
…
10000/10000 [==============================] - 8s     
('accuracy:', 0.99390000000000001)
{'acc': [… 'loss': [… 'val_acc': [… 'val_loss': [… ('X_train shape:', (60000, 1, 28, 28))
(60000, 'train samples')
(10000, 'test samples')
____________________________________________________________________________________________________
Layer (type)                       Output Shape        Param #     Connected to                     
====================================================================================================
convolution2d_5 (Convolution2D)    (None, 32, 21, 21)  2080        convolution2d_input_2[0][0]      
____________________________________________________________________________________________________
activation_7 (Activation)          (None, 32, 21, 21)  0           convolution2d_5[0][0]            
____________________________________________________________________________________________________
convolution2d_6 (Convolution2D)    (None, 32, 14, 14)  65568       activation_7[0][0]               
____________________________________________________________________________________________________
activation_8 (Activation)          (None, 32, 14, 14)  0           convolution2d_6[0][0]            
____________________________________________________________________________________________________
maxpooling2d_3 (MaxPooling2D)      (None, 32, 7, 7)    0           activation_8[0][0]               
____________________________________________________________________________________________________
dropout_4 (Dropout)                (None, 32, 7, 7)    0           maxpooling2d_3[0][0]             
____________________________________________________________________________________________________
convolution2d_7 (Convolution2D)    (None, 32, 0, 0)    65568       dropout_4[0][0]                  
____________________________________________________________________________________________________
activation_9 (Activation)          (None, 32, 0, 0)    0           convolution2d_7[0][0]            
____________________________________________________________________________________________________
convolution2d_8 (Convolution2D)    (None, 32, -7, -7)  65568       activation_9[0][0]               
____________________________________________________________________________________________________
activation_10 (Activation)         (None, 32, -7, -7)  0           convolution2d_8[0][0]            
___________________lda must be >= MAX(M,1): lda=0 M=0ldc must be >= MAX(M,1): ldc=0 M=0BLAS error: Parameter number 9 passed to cblas_sgemm had an invalid value
_________________________________________________________________________________
maxpooling2d_4 (MaxPooling2D)      (None, 32, -4, -4)  0           activation_10[0][0]              
____________________________________________________________________________________________________
dropout_5 (Dropout)                (None, 32, -4, -4)  0           maxpooling2d_4[0][0]             
____________________________________________________________________________________________________
flatten_2 (Flatten)                (None, 512)         0           dropout_5[0][0]                  
____________________________________________________________________________________________________
dense_3 (Dense)                    (None, 128)         65664       flatten_2[0][0]                  
____________________________________________________________________________________________________
activation_11 (Activation)         (None, 128)         0           dense_3[0][0]                    
____________________________________________________________________________________________________
dropout_6 (Dropout)                (None, 128)         0           activation_11[0][0]              
____________________________________________________________________________________________________
dense_4 (Dense)                    (None, 10)          1290        dropout_6[0][0]                  
____________________________________________________________________________________________________
activation_12 (Activation)         (None, 10)          0           dense_4[0][0]                    
====================================================================================================
Total params: 265738
____________________________________________________________________________________________________
Train on 48000 samples, validate on 12000 samples
Epoch 1/20
