Using Theano backend.
('X_train shape:', (60000, 1, 28, 28))
(60000, 'train samples')
(10000, 'test samples')
____________________________________________________________________________________________________
Layer (type)                       Output Shape        Param #     Connected to                     
====================================================================================================
convolution2d_1 (Convolution2D)    (None, 32, 26, 26)  320         convolution2d_input_1[0][0]      
____________________________________________________________________________________________________
activation_1 (Activation)          (None, 32, 26, 26)  0           convolution2d_1[0][0]            
____________________________________________________________________________________________________
convolution2d_2 (Convolution2D)    (None, 32, 24, 24)  9248        activation_1[0][0]               
____________________________________________________________________________________________________
activation_2 (Activation)          (None, 32, 24, 24)  0           convolution2d_2[0][0]            
____________________________________________________________________________________________________
maxpooling2d_1 (MaxPooling2D)      (None, 32, 12, 12)  0           activation_2[0][0]               
____________________________________________________________________________________________________
dropout_1 (Dropout)                (None, 32, 12, 12)  0           maxpooling2d_1[0][0]             
____________________________________________________________________________________________________
convolution2d_3 (Convolution2D)    (None, 32, 10, 10)  9248        dropout_1[0][0]                  
____________________________________________________________________________________________________
activation_3 (Activation)          (None, 32, 10, 10)  0           convolution2d_3[0][0]            
____________________________________________________________________________________________________
convolution2d_4 (Convolution2D)    (None, 32, 8, 8)    9248        activation_3[0][0]               
____________________________________________________________________________________________________
activation_4 (Activation)          (None, 32, 8, 8)    0           convolution2d_4[0][0]            
____________________________________________________________________________________________________
maxpooling2d_2 (MaxPooling2D)      (None, 32, 4, 4)    0           activation_4[0][0]               
____________________________________________________________________________________________________
dropout_2 (Dropout)                (None, 32, 4, 4)    0           maxpooling2d_2[0][0]             
____________________________________________________________________________________________________
flatten_1 (Flatten)                (None, 512)         0           dropout_2[0][0]                  
____________________________________________________________________________________________________
dense_1 (Dense)                    (None, 128)         65664       flatten_1[0][0]                  
____________________________________________________________________________________________________
activation_5 (Activation)          (None, 128)         0           dense_1[0][0]                    
____________________________________________________________________________________________________
dropout_3 (Dropout)                (None, 128)         0           activation_5[0][0]               
____________________________________________________________________________________________________
dense_2 (Dense)                    (None, 10)          1290        dropout_3[0][0]                  
____________________________________________________________________________________________________
activation_6 (Activation)          (None, 10)          0           dense_2[0][0]                    
====================================================================================================
Total params: 95018
____________________________________________________________________________________________________
Train on 48000 samples, validate on 12000 samples
Epoch 1/30
  128/48000 [..............................] - ETA: 125s - loss: 15.183
…
8723584493001, 12.854181139628093, 12.850417956034342, 12.817915392557779, 12.832690305074056, 12.542963910420736, 12.72743032582601, 12.949340894063313, 12.95357608795166]}
('X_train shape:', (60000, 1, 28, 28))
(60000, 'train samples')
(10000, 'test samples')
____________________________________________________________________________________________________
Layer (type)                       Output Shape        Param #     Connected to                     
====================================================================================================
convolution2d_5 (Convolution2D)    (None, 64, 26, 26)  640         convolution2d_input_2[0][0]      
____________________________________________________________________________________________________
activation_7 (Activation)          (None, 64, 26, 26)  0           convolution2d_5[0][0]            
____________________________________________________________________________________________________
convolution2d_6 (Convolution2D)    (None, 64, 24, 24)  36928       activation_7[0][0]               
____________________________________________________________________________________________________
activation_8 (Activation)          (None, 64, 24, 24)  0           convolution2d_6[0][0]            
____________________________________________________________________________________________________
maxpooling2d_3 (MaxPooling2D)      (None, 64, 12, 12)  0           activation_8[0][0]               
____________________________________________________________________________________________________
dropout_4 (Dropout)                (None, 64, 12, 12)  0           maxpooling2d_3[0][0]             
____________________________________________________________________________________________________
convolution2d_7 (Convolution2D)    (None, 64, 10, 10)  36928       dropout_4[0][0]                  
____________________________________________________________________________________________________
activation_9 (Activation)          (None, 64, 10, 10)  0           convolution2d_7[0][0]            
____________________________________________________________________________________________________
convolution2d_8 (Convolution2D)    (None, 64, 8, 8)    36928       activation_9[0][0]               
____________________________________________________________________________________________________
activation_10 (Activation)         (None, 64, 8, 8)    0           convolution2d_8[0][0]            
____________________________________________________________________________________________________
maxpooling2d_4 (MaxPooling2D)      (None, 64, 4, 4)    0           activation_10[0][0]              
____________________________________________________________________________________________________
dropout_5 (Dropout)                (None, 64, 4, 4)    0           maxpooling2d_4[0][0]             
____________________________________________________________________________________________________
flatten_2 (Flatten)                (None, 1024)        0           dropout_5[0][0]                  
____________________________________________________________________________________________________
dense_3 (Dense)                    (None, 128)         131200      flatten_2[0][0]                  
____________________________________________________________________________________________________
activation_11 (Activation)         (None, 128)         0           dense_3[0][0]                    
____________________________________________________________________________________________________
dropout_6 (Dropout)                (None, 128)         0           activation_11[0][0]              
____________________________________________________________________________________________________
dense_4 (Dense)                    (None, 10)          1290        dropout_6[0][0]                  
____________________________________________________________________________________________________
activation_12 (Activation)         (None, 10)          0           dense_4[0][0]                    
====================================================================================================
Total params: 243914
____________________________________________________________________________________________________
Train on 48000 samples, validate on 12000 samples
Epoch 1/30
  128/48000 [..............................] - ETA: 237s - loss: 2.912
…
045379003709182145, 0.044502566325788695, 0.035372151313039162, 0.033166215425822883, 0.029340871269659449, 0.029676928348179595, 0.03135965660891573, 0.031085635236386831]}
('X_train shape:', (60000, 1, 28, 28))
(60000, 'train samples')
(10000, 'test samples')
____________________________________________________________________________________________________
Layer (type)                       Output Shape        Param #     Connected to                     
====================================================================================================
convolution2d_9 (Convolution2D)    (None, 128, 26, 26) 1280        convolution2d_input_3[0][0]      
____________________________________________________________________________________________________
activation_13 (Activation)         (None, 128, 26, 26) 0           convolution2d_9[0][0]            
____________________________________________________________________________________________________
convolution2d_10 (Convolution2D)   (None, 128, 24, 24) 147584      activation_13[0][0]              
____________________________________________________________________________________________________
activation_14 (Activation)         (None, 128, 24, 24) 0           convolution2d_10[0][0]           
____________________________________________________________________________________________________
maxpooling2d_5 (MaxPooling2D)      (None, 128, 12, 12) 0           activation_14[0][0]              
____________________________________________________________________________________________________
dropout_7 (Dropout)                (None, 128, 12, 12) 0           maxpooling2d_5[0][0]             
____________________________________________________________________________________________________
convolution2d_11 (Convolution2D)   (None, 128, 10, 10) 147584      dropout_7[0][0]                  
____________________________________________________________________________________________________
activation_15 (Activation)         (None, 128, 10, 10) 0           convolution2d_11[0][0]           
____________________________________________________________________________________________________
convolution2d_12 (Convolution2D)   (None, 128, 8, 8)   147584      activation_15[0][0]              
____________________________________________________________________________________________________
activation_16 (Activation)         (None, 128, 8, 8)   0           convolution2d_12[0][0]           
____________________________________________________________________________________________________
maxpooling2d_6 (MaxPooling2D)      (None, 128, 4, 4)   0           activation_16[0][0]              
____________________________________________________________________________________________________
dropout_8 (Dropout)                (None, 128, 4, 4)   0           maxpooling2d_6[0][0]             
____________________________________________________________________________________________________
flatten_3 (Flatten)                (None, 2048)        0           dropout_8[0][0]                  
____________________________________________________________________________________________________
dense_5 (Dense)                    (None, 128)         262272      flatten_3[0][0]                  
____________________________________________________________________________________________________
activation_17 (Activation)         (None, 128)         0           dense_5[0][0]                    
____________________________________________________________________________________________________
dropout_9 (Dropout)                (None, 128)         0           activation_17[0][0]              
____________________________________________________________________________________________________
dense_6 (Dense)                    (None, 10)          1290        dropout_9[0][0]                  
____________________________________________________________________________________________________
activation_18 (Activation)         (None, 10)          0           dense_6[0][0]                    
====================================================================================================
Total params: 707594
____________________________________________________________________________________________________
Train on 48000 samples, validate on 12000 samples
Epoch 1/30
  128/48000 [..............................] - ETA: 495s - loss: 2.937
…
55920063613603514, 0.039417101623024794, 0.032702975684311242, 0.033874683931275892, 0.028821703897789121, 0.033232223526923919, 0.030320343265421493, 0.028844531771455271]}
('X_train shape:', (60000, 1, 28, 28))
(60000, 'train samples')
(10000, 'test samples')
____________________________________________________________________________________________________
Layer (type)                       Output Shape        Param #     Connected to                     
====================================================================================================
convolution2d_13 (Convolution2D)   (None, 256, 26, 26) 2560        convolution2d_input_4[0][0]      
____________________________________________________________________________________________________
activation_19 (Activation)         (None, 256, 26, 26) 0           convolution2d_13[0][0]           
____________________________________________________________________________________________________
convolution2d_14 (Convolution2D)   (None, 256, 24, 24) 590080      activation_19[0][0]              
____________________________________________________________________________________________________
activation_20 (Activation)         (None, 256, 24, 24) 0           convolution2d_14[0][0]           
____________________________________________________________________________________________________
maxpooling2d_7 (MaxPooling2D)      (None, 256, 12, 12) 0           activation_20[0][0]              
____________________________________________________________________________________________________
dropout_10 (Dropout)               (None, 256, 12, 12) 0           maxpooling2d_7[0][0]             
____________________________________________________________________________________________________
convolution2d_15 (Convolution2D)   (None, 256, 10, 10) 590080      dropout_10[0][0]                 
____________________________________________________________________________________________________
activation_21 (Activation)         (None, 256, 10, 10) 0           convolution2d_15[0][0]           
____________________________________________________________________________________________________
convolution2d_16 (Convolution2D)   (None, 256, 8, 8)   590080      activation_21[0][0]              
____________________________________________________________________________________________________
activation_22 (Activation)         (None, 256, 8, 8)   0           convolution2d_16[0][0]           
____________________________________________________________________________________________________
maxpooling2d_8 (MaxPooling2D)      (None, 256, 4, 4)   0           activation_22[0][0]              
____________________________________________________________________________________________________
dropout_11 (Dropout)               (None, 256, 4, 4)   0           maxpooling2d_8[0][0]             
____________________________________________________________________________________________________
flatten_4 (Flatten)                (None, 4096)        0           dropout_11[0][0]                 
____________________________________________________________________________________________________
dense_7 (Dense)                    (None, 128)         524416      flatten_4[0][0]                  
____________________________________________________________________________________________________
activation_23 (Activation)         (None, 128)         0           dense_7[0][0]                    
____________________________________________________________________________________________________
dropout_12 (Dropout)               (None, 128)         0           activation_23[0][0]              
____________________________________________________________________________________________________
dense_8 (Dense)                    (None, 10)          1290        dropout_12[0][0]                 
____________________________________________________________________________________________________
activation_24 (Activation)         (None, 10)          0           dense_8[0][0]                    
====================================================================================================
Total params: 2298506
____________________________________________________________________________________________________
Train on 48000 samples, validate on 12000 samples
Epoch 1/30
  128/48000 [..............................] - ETA: 1125s - loss: 2.7
…
