Using Theano backend.
('X_train shape:', (60000, 1, 28, 28))
(60000, 'train samples')
(10000, 'test samples')
____________________________________________________________________________________________________
Layer (type)                       Output Shape        Param #     Connected to                     
====================================================================================================
convolution2d_1 (Convolution2D)    (None, 128, 26, 26) 1280        convolution2d_input_1[0][0]      
____________________________________________________________________________________________________
activation_1 (Activation)          (None, 128, 26, 26) 0           convolution2d_1[0][0]            
____________________________________________________________________________________________________
convolution2d_2 (Convolution2D)    (None, 128, 24, 24) 147584      activation_1[0][0]               
____________________________________________________________________________________________________
activation_2 (Activation)          (None, 128, 24, 24) 0           convolution2d_2[0][0]            
____________________________________________________________________________________________________
maxpooling2d_1 (MaxPooling2D)      (None, 128, 12, 12) 0           activation_2[0][0]               
____________________________________________________________________________________________________
dropout_1 (Dropout)                (None, 128, 12, 12) 0           maxpooling2d_1[0][0]             
____________________________________________________________________________________________________
convolution2d_3 (Convolution2D)    (None, 128, 10, 10) 147584      dropout_1[0][0]                  
____________________________________________________________________________________________________
activation_3 (Activation)          (None, 128, 10, 10) 0           convolution2d_3[0][0]            
____________________________________________________________________________________________________
convolution2d_4 (Convolution2D)    (None, 128, 8, 8)   147584      activation_3[0][0]               
____________________________________________________________________________________________________
activation_4 (Activation)          (None, 128, 8, 8)   0           convolution2d_4[0][0]            
____________________________________________________________________________________________________
maxpooling2d_2 (MaxPooling2D)      (None, 128, 4, 4)   0           activation_4[0][0]               
____________________________________________________________________________________________________
dropout_2 (Dropout)                (None, 128, 4, 4)   0           maxpooling2d_2[0][0]             
____________________________________________________________________________________________________
flatten_1 (Flatten)                (None, 2048)        0           dropout_2[0][0]                  
____________________________________________________________________________________________________
dense_1 (Dense)                    (None, 128)         262272      flatten_1[0][0]                  
____________________________________________________________________________________________________
activation_5 (Activation)          (None, 128)         0           dense_1[0][0]                    
____________________________________________________________________________________________________
dropout_3 (Dropout)                (None, 128)         0           activation_5[0][0]               
____________________________________________________________________________________________________
dense_2 (Dense)                    (None, 10)          1290        dropout_3[0][0]                  
____________________________________________________________________________________________________
activation_6 (Activation)          (None, 10)          0           dense_2[0][0]                    
====================================================================================================
Total params: 707594
____________________________________________________________________________________________________
Train on 48000 samples, validate on 12000 samples
Epoch 1/20
  128/48000 [..............................] - ETA: 506s - loss: 2.744
…
