Using Theano backend.
('X_train shape:', (60000, 1, 28, 28))
(60000, 'train samples')
(10000, 'test samples')
____________________________________________________________________________________________________
Layer (type)                       Output Shape        Param #     Connected to                     
====================================================================================================
convolution2d_1 (Convolution2D)    (None, 128, 26, 26) 1280        convolution2d_input_1[0][0]      
____________________________________________________________________________________________________
activation_1 (Activation)          (None, 128, 26, 26) 0           convolution2d_1[0][0]            
____________________________________________________________________________________________________
convolution2d_2 (Convolution2D)    (None, 128, 24, 24) 147584      activation_1[0][0]               
____________________________________________________________________________________________________
activation_2 (Activation)          (None, 128, 24, 24) 0           convolution2d_2[0][0]            
____________________________________________________________________________________________________
maxpooling2d_1 (MaxPooling2D)      (None, 128, 12, 12) 0           activation_2[0][0]               
____________________________________________________________________________________________________
dropout_1 (Dropout)                (None, 128, 12, 12) 0           maxpooling2d_1[0][0]             
____________________________________________________________________________________________________
convolution2d_3 (Convolution2D)    (None, 128, 10, 10) 147584      dropout_1[0][0]                  
____________________________________________________________________________________________________
activation_3 (Activation)          (None, 128, 10, 10) 0           convolution2d_3[0][0]            
____________________________________________________________________________________________________
convolution2d_4 (Convolution2D)    (None, 128, 8, 8)   147584      activation_3[0][0]               
____________________________________________________________________________________________________
activation_4 (Activation)          (None, 128, 8, 8)   0           convolution2d_4[0][0]            
____________________________________________________________________________________________________
maxpooling2d_2 (MaxPooling2D)      (None, 128, 4, 4)   0           activation_4[0][0]               
____________________________________________________________________________________________________
dropout_2 (Dropout)                (None, 128, 4, 4)   0           maxpooling2d_2[0][0]             
____________________________________________________________________________________________________
flatten_1 (Flatten)                (None, 2048)        0           dropout_2[0][0]                  
____________________________________________________________________________________________________
dense_1 (Dense)                    (None, 128)         262272      flatten_1[0][0]                  
____________________________________________________________________________________________________
activation_5 (Activation)          (None, 128)         0           dense_1[0][0]                    
____________________________________________________________________________________________________
dropout_3 (Dropout)                (None, 128)         0           activation_5[0][0]               
____________________________________________________________________________________________________
dense_2 (Dense)                    (None, 10)          1290        dropout_3[0][0]                  
____________________________________________________________________________________________________
activation_6 (Activation)          (None, 10)          0           dense_2[0][0]                    
====================================================================================================
Total params: 707594
____________________________________________________________________________________________________
Train on 48000 samples, validate on 12000 samples
Epoch 1/30
  128/48000 [..............................] - ETA: 505s - loss: 2.744
…
57650233237693707, 0.039390908592380584, 0.033460939252283425, 0.031955328464236418, 0.028670017144992017, 0.034106254684821279, 0.028714852283281894, 0.029776461202932598]}
('X_train shape:', (60000, 1, 28, 28))
(60000, 'train samples')
(10000, 'test samples')
____________________________________________________________________________________________________
Layer (type)                       Output Shape        Param #     Connected to                     
====================================================================================================
convolution2d_5 (Convolution2D)    (None, 256, 26, 26) 2560        convolution2d_input_2[0][0]      
____________________________________________________________________________________________________
activation_7 (Activation)          (None, 256, 26, 26) 0           convolution2d_5[0][0]            
____________________________________________________________________________________________________
convolution2d_6 (Convolution2D)    (None, 256, 24, 24) 590080      activation_7[0][0]               
____________________________________________________________________________________________________
activation_8 (Activation)          (None, 256, 24, 24) 0           convolution2d_6[0][0]            
____________________________________________________________________________________________________
maxpooling2d_3 (MaxPooling2D)      (None, 256, 12, 12) 0           activation_8[0][0]               
____________________________________________________________________________________________________
dropout_4 (Dropout)                (None, 256, 12, 12) 0           maxpooling2d_3[0][0]             
____________________________________________________________________________________________________
convolution2d_7 (Convolution2D)    (None, 256, 10, 10) 590080      dropout_4[0][0]                  
____________________________________________________________________________________________________
activation_9 (Activation)          (None, 256, 10, 10) 0           convolution2d_7[0][0]            
____________________________________________________________________________________________________
convolution2d_8 (Convolution2D)    (None, 256, 8, 8)   590080      activation_9[0][0]               
____________________________________________________________________________________________________
activation_10 (Activation)         (None, 256, 8, 8)   0           convolution2d_8[0][0]            
____________________________________________________________________________________________________
maxpooling2d_4 (MaxPooling2D)      (None, 256, 4, 4)   0           activation_10[0][0]              
____________________________________________________________________________________________________
dropout_5 (Dropout)                (None, 256, 4, 4)   0           maxpooling2d_4[0][0]             
____________________________________________________________________________________________________
flatten_2 (Flatten)                (None, 4096)        0           dropout_5[0][0]                  
____________________________________________________________________________________________________
dense_3 (Dense)                    (None, 128)         524416      flatten_2[0][0]                  
____________________________________________________________________________________________________
activation_11 (Activation)         (None, 128)         0           dense_3[0][0]                    
____________________________________________________________________________________________________
dropout_6 (Dropout)                (None, 128)         0           activation_11[0][0]              
____________________________________________________________________________________________________
dense_4 (Dense)                    (None, 10)          1290        dropout_6[0][0]                  
____________________________________________________________________________________________________
activation_12 (Activation)         (None, 10)          0           dense_4[0][0]                    
====================================================================================================
Total params: 2298506
____________________________________________________________________________________________________
Train on 48000 samples, validate on 12000 samples
Epoch 1/30
  128/48000 [..............................] - ETA: 1141s - loss: 2.6
…
